mujoco_playground/experimental/sim2sim/onnx/wolves_op_policy.onnx (onnx, 774972 bytes, 10 tensors)

mlp_1/sub/ReadVariableOp:0 f4 [49]
0	0xbbb11ba1	-0.005404905
1	0xbd38b554	-0.045094803
2	0x3c440609	0.0119643295
3	0xbbd34f9f	-0.0064487006
4	0x3c543629	0.012952366
5	0xbf7d32d7	-0.989057
6	0x3b58c263	0.0033074848
7	0x39bee303	0.0003640876
8	0x3a365f3c	0.000695694
9	0x38050b84	3.1720396e-05
10	0x3b4f9e92	0.0031680209
11	0x3c7028f9	0.014658206
12	0x3d890b6b	0.06691631
13	0x3bc4d432	0.006006741
14	0x3d0cb9fe	0.034357063
15	0x3ad1d79e	0.0016009693
16	0xbbde34bc	-0.006781189
17	0x3c1a3e97	0.009414337
18	0xbdb6e90b	-0.08931168
19	0xbb71dc6d	-0.0036905066
20	0xbc4cb123	-0.012493405
21	0x3accafe2	0.0015616382
22	0x3b039820	0.0020079687
23	0x3ba1c08d	0.004936284
24	0x3c9bad6b	0.01900359
25	0x3b82cb92	0.0039915526
26	0x3bf6a563	0.00752704
27	0xbbb7d780	-0.0056104064
28	0xbb440777	-0.0029911676
29	0x3a9d6319	0.0012007683
30	0xbc9d1a52	-0.01917759
31	0xbc7958ef	-0.015218957
32	0x3b683054	0.0035429196
33	0x39ac347b	0.00032845497
34	0xbdbb8695	-0.09156529
35	0xbd0df149	-0.034653936
36	0xbd94b259	-0.072605796
37	0xbc68b930	-0.014204308
38	0x3e08c00e	0.13354513
39	0x3b86d585	0.004114809
40	0x3dda2df6	0.106532976
41	0x3db12fb1	0.086516745
42	0x3d972179	0.07379431
43	0x3d1004f1	0.035160962
44	0xbdc947aa	-0.09828122
45	0x3b3f8831	0.0029225464
46	0xbb3f8919	-0.0029226004
47	0x3b8fdee6	0.0043905852
48	0xbb8fdee4	-0.0043905843

mlp_1/MLP_0_1/hidden_3_1/Cast/ReadVariableOp:0 f4 [128, 24]
0	0xbd33680c	-0.0438004
1	0xbbae34a6	-0.005316335
2	0x3cc252b3	0.023721075
3	0xbd65edbe	-0.05613493
4	0xbbbc54a3	-0.005747394
5	0xbb8f3e2e	-0.004371426
6	0x3c936a65	0.017995069
7	0x3c684113	0.014175671
8	0x3d2db368	0.042407423
9	0x3d9be01b	0.07611104
10	0xbd7a5f55	-0.061126072
11	0x3de90b29	0.11379082
12	0x3d34a532	0.044102855
13	0xbd0371b4	-0.032090858
14	0xbce5d614	-0.028056182
15	0xbd24b758	-0.040213913
16	0xbd86168a	-0.06547268
17	0xbd995691	-0.07487214
18	0xbdd71cee	-0.10503565
19	0x3d4cb59a	0.049977876
20	0xbd03c2d0	-0.03216821
21	0xbd1a6442	-0.03769327
22	0xbd104b23	-0.035227906
23	0xbce55d40	-0.027998567
24	0x3cc4182e	0.023937311
25	0xbcceeabd	-0.025258416
26	0x3c81035d	0.015748674
27	0xbd8a2b91	-0.06746591
28	0xbc9f8ce8	-0.019476369
29	0x3d9fc02d	0.078003265
30	0xbdbcd8e4	-0.09221056
31	0xbcf339bd	-0.029690618
32	0x3cc0df42	0.023543958
33	0xbcae2374	-0.02125714
34	0x3de0ba24	0.109730035
35	0x3d29868f	0.04138809
36	0x3caefeca	0.021361727
37	0x3d4060c3	0.04696728
38	0x3d1b9ad4	0.037989452
39	0x3da6f2bb	0.08151766
40	0xbba1442e	-0.0049214577
41	0xbb6fd56a	-0.003659571
42	0x3dc21da3	0.09478309
43	0xbdafd02c	-0.085846275
44	0x3db2efad	0.08737121
45	0x3ddbe933	0.107378386
46	0x3d386609	0.045019183
47	0x3d0a8e73	0.033827256
48	0x3dab32a8	0.08359271
49	0x3d867dee	0.06566988
50	0x3c9b98fd	0.018993849
51	0xbdb42aa8	-0.087971985
52	0xbd5b4226	-0.05352988
53	0x3d23e7db	0.040016036
54	0x3b4e9c70	0.003152635
55	0xbd38c380	-0.04510832
56	0xbd0f8dd5	-0.03504737
57	0x3b8b872c	0.004258057
58	0x3e03ab97	0.12858425
59	0xbdff4328	-0.12463981
60	0xbce1152b	-0.027475914
61	0x3d9c22be	0.07623814
62	0x3ced6905	0.028980741
63	0x3e0722bd	0.13196845
64	0x3d80296b	0.062579
65	0x3c22ef14	0.009944696
66	0x3dc95b20	0.09831834
67	0xbcf7ab77	-0.030233128
68	0xbba09d73	-0.004901582
69	0x3c1ebe4e	0.009688927
70	0x3d2c37b0	0.042045295
71	0x3d114bda	0.03547273
72	0xbd9dcff4	-0.077056795
73	0x3d14f1eb	0.036363523
74	0x3d489c2f	0.048977073
75	0x3e15d047	0.14630233
76	0x3d91febb	0.07128664
77	0xbcf11e26	-0.029433321
78	0x3d49221d	0.0491048
79	0x3cc1b05c	0.023643665
80	0x3d9889a0	0.07448125
81	0x3b823901	0.0039740806
82	0xbdc825a1	-0.09772802
83	0xbda22ff3	-0.07919302
84	0x3e5e1880	0.21689034
85	0x3de7fba4	0.113272935
86	0x3e760475	0.24025138
87	0x3cb04a8a	0.021519918
88	0x3d4e8c24	0.050426617
89	0x3e2e5dfb	0.17028038
90	0x3e2ae98d	0.16690655
91	0x3dd9851d	0.106210925
92	0x3deffce1	0.11718155
93	0x3df2cab1	0.118550666
94	0x3e338535	0.17531283
95	0x3e3fc02b	0.1872565
96	0xbaf4e9cf	-0.0018685403
97	0x3d3e45bf	0.046453234
98	0xbdc16a88	-0.09444147
99	0xbe0eac1f	-0.13932846
100	0xbd1f704e	-0.03892546
101	0x3d637cad	0.055538822
102	0xbd4469c8	-0.047952443
103	0x3c15b201	0.009136678
104	0xbd911206	-0.07083516
105	0xbd2dca93	-0.042429518
106	0xbd73b6d3	-0.059500527
107	0x3bfeb633	0.0077731847
108	0xbd5744d9	-0.052555893
109	0x3dd700ca	0.104981974
110	0x3dc2ef35	0.09518281
111	0x3dd6459d	0.104624964
112	0xbbabbe48	-0.005241189
113	0xbbe1331e	-0.0068725487
114	0xb9ab5bee	-0.00032684155
115	0xbd4db02f	-0.05021685
116	0x3d95f901	0.07322884
117	0x3d69127d	0.056902397
118	0x3c9a4685	0.018832454
119	0x3d465816	0.04842385
120	0xbcd3f1cd	-0.025872136
121	0xbc3302a4	-0.010925923
122	0xbd63d104	-0.055619255
123	0x3e4fbfe5	0.20288046
124	0xbdea748c	-0.11448011
125	0x3dd9ecae	0.10640846
126	0x3d2027f6	0.03910061
127	0x3d2e75db	0.042592864
128	0xbd7bf74a	-0.06151513
129	0x3d722bdc	0.05912386
130	0x3e45f354	0.19331104
131	0x3d6fac82	0.058514126
132	0x3e2270f3	0.15863399
133	0x3d961e17	0.07329958
134	0x3e92f06c	0.28699052
135	0x3e29bf33	0.16576843
136	0x3e325a43	0.17417245
137	0x3e10671f	0.14101838
138	0x3e91d66f	0.28483912
139	0x3e1db05c	0.15399307
140	0x3e908969	0.28229836
141	0x3e012f56	0.12615713
142	0x3e5c96b6	0.21541867
143	0x3e9d76d0	0.3075471
144	0x3c87be0f	0.01657012
145	0xbd593d4e	-0.05303698
146	0x3d43dae5	0.047816176
147	0xbce2cecc	-0.027686499
148	0xbda97920	-0.08275056
149	0x3d17f4b1	0.03709859
150	0xbb47458d	-0.0030406446
151	0xbd8315e9	-0.064006634
152	0x3e0dce1b	0.13848154
153	0x3cf52ced	0.029928649
154	0x3d9f6b45	0.07784132
155	0x3cf96fec	0.030448876
156	0x3b8689c8	0.0041057803
157	0x3e48191f	0.19540833
158	0x3dc8d78c	0.09806737
159	0x3bc6d2cf	0.006067611
160	0x3e30c9f2	0.17264536
161	0x3e05ecd7	0.13078628
162	0x3e00bef7	0.12572847
163	0x3e106f27	0.14104901
164	0x3e19984a	0.149995
165	0x3d91202f	0.07086217
166	0x3e1be089	0.15222372
167	0xbbde564c	-0.0067851897
168	0xbb8d0c73	-0.0043044626
169	0xbced6782	-0.02898002
170	0xbdd6ed58	-0.104944885
171	0x3d7fde05	0.062467594
172	0x3d908dad	0.070582725
173	0x3bbb3183	0.0057126894
174	0xbe09cb0d	-0.13456364
175	0x3d21eaa1	0.0395304
176	0x3c8536d9	0.016261505
177	0xbdf24c17	-0.11830919
178	0x3d837c99	0.064202495
179	0xbc120d2f	-0.008914276
180	0x3e21c555	0.15797932
181	0x3d0883f3	0.03332896
182	0x3df0a30c	0.11749849
183	0xbc25df4e	-0.010124041
184	0x3de4f2a7	0.11179095
185	0x3d363f50	0.044493973
186	0x3e2510ca	0.16119686
187	0x3daf86d6	0.0857064
188	0x3dcc4c40	0.09975481
189	0xbbf3228f	-0.007419891
190	0x3e19db90	0.15025163
191	0x3e1fa4de	0.15590236
192	0xbd38bab7	-0.04509994
193	0x3d862262	0.06549527
194	0x3d76c3aa	0.060245194
195	0xbd50b39a	-0.05095253
196	0x3d8d0982	0.06886579
197	0xbc6e595f	-0.014547675
198	0x3d45b376	0.04826685
199	0xbd7dac2c	-0.061931774
200	0xbc762a2d	-0.015024704
201	0xbcd78098	-0.026306435
202	0x3c421e60	0.011848062
203	0x3db6b2ce	0.08920823
204	0xbd07ee3a	-0.033186175
205	0xbae24d1e	-0.0017265414
206	0x3d1d7b4b	0.03844766
207	0xbd742333	-0.05960388
208	0xbd0efbcf	-0.034908112
209	0x3c026c15	0.007960339
210	0xbcbb1ecf	-0.02284184
211	0xbd206668	-0.039160162
212	0xbacf7cea	-0.0015830074
213	0xbb6dbe70	-0.003627684
214	0xbd072cf9	-0.033001874
215	0x3d216fa2	0.039413102
216	0x3c25b7fb	0.010114665
217	0xbd71dcd0	-0.059048474
218	0xbca5e1a6	-0.0202492
219	0xbc74b21a	-0.014935041
220	0xbc52637c	-0.012841102
221	0xbd98e770	-0.07466018
222	0xbcddc5cb	-0.027071854
223	0x3d86567c	0.06559464
224	0xbd5996a0	-0.053122163
225	0x3b0339d4	0.0020023482
226	0xbdbc86fc	-0.09205434
227	0x3ccbc724	0.024875231
228	0xbddcce57	-0.10781544
229	0xbd1c7e26	-0.038206242
230	0xbd1536e1	-0.03642929
231	0xbd1f8971	-0.038949434
232	0xbd80095f	-0.062517874
233	0xbcf5b70f	-0.029994516
234	0xbda07fae	-0.07836853
235	0xbdc159de	-0.09440969
236	0x3a89dfb7	0.0010518943
237	0xbdbca4bf	-0.0921111
238	0xbce8c0dc	-0.028412275
239	0x3dd1c5e3	0.10242822
240	0xbd8ca323	-0.06867053
241	0x3ddf1241	0.108921535
242	0x3daa40a1	0.08313108
243	0x3e1d9a1c	0.1539082
244	0x3daa2dd5	0.08309523
245	0xbba95bac	-0.005168399
246	0xbdfbfb38	-0.123037755
247	0xbd3aad73	-0.04557557
248	0xbd2e3912	-0.042534895
249	0xbd571da5	-0.052518506
250	0xbdbe73f1	-0.09299458
251	0x3dab6df9	0.08370585
252	0x3e295cbc	0.16539282
253	0x3e3e2e5c	0.18572372
254	0x3e3d5af7	0.18491732
255	0x3e064975	0.13113959

mlp_1/MLP_0_1/hidden_3_1/BiasAdd/ReadVariableOp:0 f4 [24]
0	0xbc12fcd7	-0.0089714145
1	0xbaa58b82	-0.0012630078
2	0xbd298474	-0.041386083
3	0xbd94359e	-0.07236789
4	0x3d42832d	0.04748838
5	0x3c7498ad	0.014928979
6	0x3bdac592	0.0066763842
7	0x3d2d6d2f	0.042340454
8	0x3ce53a2d	0.027981842
9	0x3d4ffcdb	0.05077825
10	0xbb6ac830	-0.0035824887
11	0x3cdbe64c	0.026843213
12	0xbe9eedde	-0.31040853
13	0xbe9e584b	-0.30926737
14	0xbeb057b9	-0.34441927
15	0xbe606450	-0.21913266
16	0xbe6689a8	-0.22513449
17	0xbe74adaa	-0.23894373
18	0xbea6f53c	-0.32608974
19	0xbe95b6d3	-0.29241046
20	0xbe95bb81	-0.29244617
21	0xbe627afe	-0.2211723
22	0xbe6516e9	-0.22372021
23	0xbe760dfd	-0.24028774

mlp_1/MLP_0_1/hidden_2_1/Cast/ReadVariableOp:0 f4 [256, 128]
0	0xbe6a74b9	-0.22896089
1	0xbdcb8370	-0.09937179
2	0x3d3acfe3	0.045608412
3	0xbc516b88	-0.012781985
4	0xbd1988be	-0.037483923
5	0x3da87296	0.082249805
6	0x3dcb32b5	0.09921781
7	0x3e0e4227	0.13892423
8	0x3d608321	0.054812554
9	0x3d9fced3	0.078031205
10	0xbd279548	-0.04091385
11	0xbd478c50	-0.048717797
12	0xbe5d6308	-0.21619809
13	0xbd32f57f	-0.043691155
14	0xbd85c4c6	-0.06531672
15	0xbd732e0b	-0.059370082
16	0xbd77a421	-0.06045926
17	0x3d0d085f	0.03443181
18	0xbe31f4f2	-0.17378595
19	0xbd7c068f	-0.061529692
20	0x3dc0f6e7	0.09422093
21	0x3dcd91a2	0.10037543
22	0xbdab07b9	-0.08351082
23	0xbbc22026	-0.0059242425
24	0xbd16d508	-0.036824256
25	0xbcd06564	-0.025438972
26	0xbdb3e2a4	-0.08783463
27	0xbe82c6a3	-0.25542173
28	0xbcf384b3	-0.029726362
29	0xbbdd3978	-0.0067512356
30	0xbe031424	-0.12800652
31	0xbbc4234c	-0.005985653
32	0xbc0901c1	-0.008362235
33	0xbab8aa42	-0.0014088827
34	0x3cfaded2	0.030623827
35	0xbc922cf6	-0.017843705
36	0xbe1042d8	-0.14087999
37	0xbde50daa	-0.11184247
38	0x39456a92	0.00018827085
39	0x3d2a702d	0.041610885
40	0x3de6d56b	0.11271175
41	0xbd2d9383	-0.042377006
42	0xbd2048d8	-0.03913197
43	0x3d72ef08	0.05930999
44	0x3c2b7d26	0.010466849
45	0xbb041340	-0.0020153075
46	0x3d4303a9	0.047610912
47	0xbca70211	-0.020386728
48	0x3d8696a5	0.06571702
49	0xbd12b114	-0.035813406
50	0xbe07ac06	-0.13249215
51	0xbc74d423	-0.014943155
52	0x3d7390bb	0.059464198
53	0xbd8c41e9	-0.06848509
54	0xbdb2943c	-0.0871968
55	0x3db090f4	0.086213976
56	0x3d8e0258	0.06934041
57	0xbd22642b	-0.03964631
58	0xbd3fcb13	-0.046824526
59	0xbceac996	-0.028660577
60	0x3e4d1cf0	0.2003057
61	0xbd4cf1bc	-0.050035223
62	0xbcb4a3b6	-0.02205072
63	0xbe0a09eb	-0.13480346
64	0x3d882bd2	0.06648983
65	0xbdb6cdc9	-0.08925969
66	0x3d64cbbf	0.05585837
67	0x3e053b4a	0.13010898
68	0xbcc1e606	-0.023669254
69	0xbd13ba8f	-0.036066588
70	0xbd6e4a48	-0.05817631
71	0x3bbde749	0.0057953936
72	0x3d5a9465	0.053364176
73	0x3d8f1733	0.06986847
74	0xbbcf199b	-0.006320191
75	0x3c2f7dd7	0.010711155
76	0x3d569491	0.052387778
77	0x3d2a673a	0.04160235
78	0x3b225707	0.002477111
79	0x3d1122c5	0.03543355
80	0x3c116fad	0.008876723
81	0xbdf5364d	-0.11973248
82	0x3d44dede	0.048064105
83	0x3e104505	0.14088829
84	0x3d90f970	0.070788264
85	0x3d812d99	0.06307525
86	0x3daedc0a	0.08538063
87	0x3d86a15b	0.06573745
88	0x3e0828b6	0.1329678
89	0xbcb175e9	-0.02166267
90	0xbcdf7cbb	-0.027281156
91	0x3de347ee	0.11097704
92	0xbb836b84	-0.0040106196
93	0x3e047b71	0.12937714
94	0xbda15d3b	-0.078791104
95	0xbad54d8f	-0.0016273725
96	0x3df803c9	0.12110097
97	0x3c93194f	0.017956404
98	0xbde5ecac	-0.11226782
99	0xbd5fe1eb	-0.05465881
100	0x3e0855d6	0.13313994
101	0xbcde49e9	-0.027134852
102	0xba2d58d2	-0.00066126615
103	0x3b5dc309	0.0033838174
104	0x3d84507a	0.06460662
105	0xbe016520	-0.12636232
106	0x3c4b6db9	0.012416297
107	0xbc8c7aaf	-0.017148344
108	0xbde8a92a	-0.113603905
109	0xbd46040b	-0.0483437
110	0xbdc3f031	-0.09567297
111	0x3d7995d5	0.060933907
112	0x3da2a089	0.07940776
113	0x3d90670c	0.07050905
114	0x3de4766f	0.11155402
115	0x3dd9f1c8	0.10641819
116	0xbd793286	-0.0608392
117	0x3db16bcd	0.086631395
118	0x3d4a2f10	0.04936129
119	0xbcbeb575	-0.023279885
120	0xbd7294c7	-0.059223916
121	0x3c90ae09	0.017661111
122	0x3ccd2e99	0.025046634
123	0xbda2c254	-0.079472214
124	0xbd81dbb1	-0.06340731
125	0x3d026356	0.031833015
126	0xbcea45ef	-0.0285978
127	0xbdbf4abf	-0.093404286
128	0xbde71c8c	-0.11284742
129	0xbca12043	-0.019668704
130	0x3d53a6eb	0.051672857
131	0x3e44e85d	0.19229265
132	0xbd675e76	-0.05648657
133	0x3d9bf8c4	0.07615808
134	0x3b870892	0.0041208947
135	0xbc9b32c5	-0.018945107
136	0x3d9c9377	0.07645314
137	0xbdb9a640	-0.09064913
138	0x3da76b3c	0.0817475
139	0xbce3e116	-0.02781729
140	0x3e0ea560	0.13930273
141	0x3e130cb2	0.14360312
142	0x3d3d3ef6	0.046202622
143	0xbde06236	-0.10956232
144	0x3bcf59f1	0.0063278605
145	0x3e4b74b1	0.19868733
146	0x3d7c0747	0.061530378
147	0x3dfeffab	0.124511085
148	0xbc9d10ba	-0.019173015
149	0xbdad2103	-0.08453562
150	0x3d84548b	0.06461438
151	0xbce8d70c	-0.028422855
152	0x3e1a9f64	0.15099865
153	0xbd4abc6a	-0.049496092
154	0x3d4a2664	0.04935302
155	0x3d9027d2	0.07038845
156	0x3d494b49	0.049144063
157	0x3cb55ee3	0.022139972
158	0xbd8c481a	-0.0684969
159	0xbd8e0428	-0.069343865
160	0x3dc7b963	0.097521566
161	0xbb9643ca	-0.004585718
162	0x3cc74009	0.024322527
163	0xbdd1b0df	-0.102388136
164	0x3d2a0392	0.04150731
165	0x3d2896a4	0.041159287
166	0xbe09a61a	-0.13442269
167	0xbd073189	-0.033006225
168	0xbd9f203b	-0.07769819
169	0x3d0d4d58	0.03449759
170	0x3da1d2ce	0.07901536
171	0x3d9b335c	0.075781554
172	0x3c7bd727	0.015371121
173	0x3d522661	0.051306132
174	0x3dd33790	0.10313332
175	0xbdf9fa02	-0.12205888
176	0x3d1bb009	0.038009677
177	0x3d52994b	0.051415723
178	0x3d70c54f	0.05878192
179	0xbdac9fcf	-0.084289186
180	0x3d6037ca	0.054740705
181	0xbd21ac90	-0.03947121
182	0xbc7ec6ed	-0.015550357
183	0x3dab9a9b	0.08379098
184	0x3cfafa65	0.030636976
185	0x3cdbb0f4	0.026817776
186	0x3d208c13	0.039196085
187	0x3dcd5826	0.100265786
188	0x3d250d2f	0.040295776
189	0xbd2e7a7f	-0.04259729
190	0xbd1defc9	-0.038558755
191	0x3e0639f9	0.13108052
192	0xbd4e4093	-0.05035455
193	0xbd94e3c9	-0.07270009
194	0xbe6ad15a	-0.22931424
195	0x3e23d59c	0.15999454
196	0xbdc58ab4	-0.09645596
197	0xbd8a4648	-0.06751686
198	0x3d94d046	0.072662875
199	0x3df9e0bf	0.1220107
200	0x3d72a10b	0.059235614
201	0xbd15ac17	-0.03654107
202	0x3d217946	0.039422296
203	0x3e19676b	0.14980857
204	0x3d3d23bb	0.046176653
205	0x3df58e7d	0.11990068
206	0xbdb4b4b4	-0.08823529
207	0xbcc7b917	-0.02438025
208	0x3e5ba642	0.21450141
209	0x3d7c3b82	0.06158019
210	0x3ce3e1c6	0.027817618
211	0x3c816889	0.015796917
212	0xbd4b4b92	-0.049632616
213	0xbc37e0aa	-0.011222998
214	0xbd80cd19	-0.06289119
215	0x3d2e176f	0.042502817
216	0x3c59af07	0.013286359
217	0x3d739757	0.0594705
218	0xbcbcd469	-0.023050504
219	0xbd26c5f4	-0.040716127
220	0x3e4413cd	0.19148178
221	0x3ddb97cf	0.107223146
222	0x3dabee5e	0.08395074
223	0xbe1cc089	-0.15307821
224	0x3c9ad45a	0.018900085
225	0xbcc19527	-0.023630692
226	0x3d6fd061	0.058548335
227	0xba885de2	-0.0010403956
228	0x3e1cc635	0.15309985
229	0x3dc73a06	0.09727864
230	0x3d9c5a73	0.07634439
231	0x3e0305fe	0.12795255
232	0x3a85fcd8	0.0010222448
233	0x3da442c9	0.08020551
234	0x3c599005	0.013278966
235	0xbd5b1f38	-0.05349657
236	0xbd17f5df	-0.037099715
237	0xbd0ae8f6	-0.033913575
238	0x3c390c4a	0.011294434
239	0x3dbef5e0	0.09324241
240	0x3e11df60	0.14245367
241	0x3ddaa899	0.10676689
242	0x3e434153	0.19067888
243	0x3c260e6e	0.010135276
244	0x3d4f1a77	0.05056235
245	0xbd8348d5	-0.06410376
246	0x3d89e918	0.06733912
247	0x3e27fde7	0.1640545
248	0xb9ca3444	-0.00038567383
249	0x3b5840b0	0.003299754
250	0x3b8bc57a	0.0042654844
251	0xbd1d99d3	-0.038476776
252	0x3cc8dd8d	0.024519706
253	0x3ba9f662	0.005186842
254	0x3e10eb5b	0.14152281
255	0x3e5023e6	0.20326194

mlp_1/MLP_0_1/hidden_2_1/BiasAdd/ReadVariableOp:0 f4 [128]
0	0x3d226cdd	0.0396546
1	0xbe05869c	-0.1303963
2	0xbddb5180	-0.10708904
3	0xbe58d276	-0.21174034
4	0xbc806dcf	-0.01567736
5	0xbe87043b	-0.26370415
6	0xbe2f2891	-0.17105319
7	0xbe73ed45	-0.2382098
8	0xbd751e15	-0.05984314
9	0x3b2c62c3	0.0026303984
10	0xbe886a06	-0.2664339
11	0xbd8f63bd	-0.070014454
12	0xbc87ae25	-0.01656253
13	0x3c729b2b	0.014807503
14	0x3d1b5316	0.037921034
15	0xbc1404cf	-0.00903435
16	0xbe780c42	-0.24223426
17	0xbe2a9d1d	-0.16661496
18	0xbdc0dc31	-0.09416998
19	0xbe1f163c	-0.15535825
20	0x3c99e0c6	0.018783938
21	0xbd393651	-0.045217816
22	0xbe3be77c	-0.18350023
23	0xbce9b99b	-0.028530886
24	0xbd8abb11	-0.06773961
25	0xbd7118c3	-0.058861505
26	0xbe1953fc	-0.14973444
27	0xbe0a63c5	-0.13514622
28	0xbd8efa13	-0.069812916
29	0xbe9274e0	-0.28604794
30	0xbcd1eebd	-0.025626535
31	0xbce35593	-0.027750766
32	0xbd99a7cf	-0.0750271
33	0x3e0d96e7	0.13827096
34	0xbe329f8f	-0.1744368
35	0xbb83f9a0	-0.0040275604
36	0x3da21c2a	0.07915528
37	0xbc7e854f	-0.015534713
38	0x3d9a0e25	0.07522229
39	0xbb3de304	-0.0028974423
40	0xbe0f1539	-0.1397294
41	0x3c95e1bf	0.01829612
42	0xbe19ad31	-0.15007474
43	0xbc910700	-0.017703533
44	0xbca2363b	-0.01980125
45	0xbd8e45f8	-0.06946939
46	0xbe0add4d	-0.13560982
47	0xbe8ff4ee	-0.28116554
48	0xbdb6cc29	-0.08925659
49	0xbcf272a1	-0.029595675
50	0xbd66a61d	-0.05631076
51	0xbdaf9fd7	-0.08575409
52	0xbde5b66b	-0.11216434
53	0xbe310aa7	-0.1728922
54	0xbe0cf3e4	-0.13764912
55	0xbd17a614	-0.03702362
56	0x3db9943c	0.090614766
57	0x3d0fefbb	0.035140734
58	0xbd7505af	-0.059819873
59	0xbe4aaccd	-0.19792481
60	0xbc908ded	-0.0176458
61	0x3db2c1ff	0.08728408
62	0xbd284961	-0.041085605
63	0xbd420e4b	-0.047376912
64	0xbd2a2b94	-0.041545466
65	0xbcfcf7ab	-0.030879816
66	0xbe69a7e9	-0.22817959
67	0xbe11ddb1	-0.14244725
68	0x3d156a54	0.036478356
69	0xbdc79342	-0.09744884
70	0x3c0823ab	0.008309285
71	0xbe645dbc	-0.22301382
72	0xbe20e022	-0.157105
73	0xbd5b2f09	-0.053511653
74	0xbe27e1ed	-0.16394778
75	0xbe983669	-0.29729012
76	0xbe84e708	-0.25957513
77	0xbe44e0bf	-0.19226359
78	0x3d4be661	0.049780253
79	0xbde5bfe7	-0.11218243
80	0xbd87c542	-0.06629421
81	0xbe5accd0	-0.21367192
82	0xbe3240dc	-0.17407554
83	0xbe89fb52	-0.26949555
84	0xbd8402d4	-0.06445852
85	0xbd5b7c77	-0.053585496
86	0xbe80eefa	-0.25182325
87	0xbda90e3e	-0.082546696
88	0xbe0a5ba0	-0.13511515
89	0xbd73f071	-0.059555475
90	0x3c5546de	0.013017384
91	0xbcbc579d	-0.022990996
92	0xbe8b5942	-0.27216536
93	0xbc802d98	-0.01564674
94	0x3d4748c3	0.048653375
95	0xbd8974d1	-0.06711734
96	0xbe38aa4e	-0.18033716
97	0x3d82d455	0.06388155
98	0xbda5b617	-0.080913715
99	0xbdfcfcdd	-0.12352917
100	0xbe1932fb	-0.14960854
101	0xbe599d06	-0.21251306
102	0xbddd84a1	-0.108163126
103	0xbe0b7048	-0.1361705
104	0x3e07ed8e	0.13274214
105	0x3d1894f8	0.037251443
106	0xbd8f8bff	-0.07009124
107	0xbdc40813	-0.095718525
108	0xbd94e628	-0.07270461
109	0x3cb88627	0.022524906
110	0xbd161343	-0.036639463
111	0xbec0909c	-0.37610328
112	0xbe3ed430	-0.1863563
113	0xbd3d61ab	-0.04623572
114	0xbe66d780	-0.22543144
115	0xbdd3e3e1	-0.10346199
116	0xbe105315	-0.14094193
117	0xbdad251e	-0.08454345
118	0xbde8c747	-0.11366134
119	0xbb212bc1	-0.002459273
120	0xbe6fa7b8	-0.23403823
121	0x3d110891	0.03540856
122	0xbebeb00d	-0.3724369
123	0xbc55b0c7	-0.013042635
124	0xbd4ed317	-0.05049428
125	0x3cf1ab1e	0.02950054
126	0xbeb5bf60	-0.3549757
127	0xbd48e1e5	-0.049043555

mlp_1/MLP_0_1/hidden_1_1/Cast/ReadVariableOp:0 f4 [512, 256]
0	0xbc2ed5e6	-0.010671115
1	0xbe152415	-0.14564545
2	0x3debda0b	0.11516198
3	0x3d948ebc	0.07253787
4	0xbe4d200c	-0.20031756
5	0xbd28e3ba	-0.041232802
6	0xbd080e63	-0.033216845
7	0x3e002f84	0.12518126
8	0x3df864b5	0.12128583
9	0x3b95cceb	0.0045715473
10	0x3d4d3af9	0.05010507
11	0x3d6d7656	0.057974182
12	0xbd8962f8	-0.0670833
13	0xbe288943	-0.16458611
14	0xbd0828aa	-0.033241905
15	0x3d08cada	0.03339658
16	0xbe059cc2	-0.1304808
17	0xbdd409f4	-0.10353461
18	0x3a435220	0.0007450897
19	0xbb0f279c	-0.0021843677
20	0xbddd0ab1	-0.10793055
21	0x3d140c67	0.03614464
22	0xbdb6a0c3	-0.089173816
23	0xbd70ad16	-0.058758818
24	0x3e0702ca	0.13184658
25	0xbcdb1266	-0.026742171
26	0xbd096787	-0.033545997
27	0xbc57fb4e	-0.013182474
28	0xbe23035e	-0.15919253
29	0xbe332909	-0.17496122
30	0xbe1346bb	-0.1438245
31	0xbcfdd4e8	-0.03098531
32	0xbc85c63b	-0.016329875
33	0xbb38dff5	-0.002820966
34	0x3d42f66c	0.047598287
35	0x3da59b42	0.08086254
36	0xbc7ac660	-0.015306085
37	0x3d5d8ae7	0.054087546
38	0xbdacef3b	-0.08444067
39	0xbce77bc8	-0.028257266
40	0xbb1c4830	-0.0023846738
41	0xbd6ff80f	-0.058586176
42	0xbd6ae38a	-0.057345904
43	0xbd7f7a42	-0.062372454
44	0xbd351921	-0.044213418
45	0x3d348bfc	0.044078812
46	0x3cdffb72	0.027341578
47	0xbc33fa9b	-0.010985042
48	0xbb9ac69e	-0.004723384
49	0x3d929dee	0.07159029
50	0xbd3c6e26	-0.046003483
51	0x3d841b93	0.06450572
52	0x3dbc5a8b	0.09196957
53	0xbe00ebcc	-0.1258995
54	0xbde7b95d	-0.11314652
55	0x3dba4433	0.09095039
56	0xbd6238aa	-0.05522982
57	0xbd7bfeef	-0.06152242
58	0x3dabebba	0.08394571
59	0x3d476328	0.048678547
60	0xbaa30e92	-0.0012440255
61	0xbd10d062	-0.03535498
62	0xbd9750d8	-0.073884666
63	0xbe43de0d	-0.19127674
64	0xbccd9cb7	-0.025099142
65	0xbda1fbd3	-0.0790936
66	0xbd69c261	-0.05707014
67	0x3be898c3	0.0070982887
68	0xbe42047a	-0.1894702
69	0xbdabde13	-0.08391967
70	0x3c72b16b	0.014812808
71	0x3d2b928b	0.0418878
72	0x3d67238b	0.05643038
73	0x3d6dd18e	0.058061175
74	0xbd1539a3	-0.03643192
75	0x3d49587b	0.049156647
76	0xbde22dc9	-0.11043889
77	0xbc44eb5a	-0.012019003
78	0xba5479b8	-0.0008105296
79	0x3d0bd6c9	0.034140382
80	0xbe0ccf61	-0.13750984
81	0xbde3a2e1	-0.11115051
82	0xbcc6d468	-0.024271205
83	0x3da77712	0.08177008
84	0xbd882180	-0.066470146
85	0x3a108dca	0.0005514292
86	0x3dfd462b	0.12366899
87	0xbc43edae	-0.011958523
88	0x3d0ae9ea	0.033914484
89	0x3d4d5e94	0.050139025
90	0xbe6a31e3	-0.22870593
91	0x3c4ef525	0.012631689
92	0x3dd13e03	0.10216906
93	0x3dca1b35	0.098684706
94	0x3d6e9989	0.05825189
95	0xbd831feb	-0.06402572
96	0xbe5f8dd6	-0.2183145
97	0xbd9acfd1	-0.07559169
98	0x3ddea880	0.108719826
99	0x3d33b242	0.04387117
100	0xbe0ca91d	-0.13736387
101	0x3acc66fa	0.0015594654
102	0x3c36f8c0	0.011167705
103	0xbdb3423b	-0.08752867
104	0x3d9b325d	0.075779654
105	0x3d93cdb6	0.072169706
106	0xbcd4f334	-0.025994875
107	0xbdea3567	-0.11435967
108	0x3d6caa0b	0.057779353
109	0xbd025064	-0.031814948
110	0x3db8728e	0.090062246
111	0xbe1f266c	-0.15542
112	0xbde120c4	-0.10992578
113	0xbe122bff	-0.14274596
114	0xbdf18742	-0.117933765
115	0xbdc1922d	-0.09451709
116	0xbadf6138	-0.0017042523
117	0x3c154081	0.009109617
118	0x3e1e3b71	0.15452363
119	0xbe001d00	-0.12511063
120	0xbc7fb8e0	-0.0156080425
121	0xbdd11aad	-0.10210166
122	0xbd77af41	-0.06046987
123	0x3de74173	0.1129178
124	0xbde505b9	-0.11182732
125	0x3d543dd1	0.051816765
126	0x3b801070	0.0039082095
127	0xbdacd9a1	-0.08439947
128	0xbd333aa0	-0.04375708
129	0x3d990f1a	0.074735835
130	0x3d8fbff7	0.07019036
131	0xbc4e6cc1	-0.012599171
132	0x3d873045	0.066010036
133	0xbda0d68a	-0.0785342
134	0xbdc12cf7	-0.094324045
135	0xbc0128da	-0.007883275
136	0x3d1ff9ee	0.03905671
137	0xbd93e048	-0.07220513
138	0x3cced9e5	0.025250385
139	0x3c3274df	0.010892122
140	0xbd21530a	-0.039385833
141	0xbe18689a	-0.14883652
142	0xbd14c951	-0.036324803
143	0xbdc0c1bf	-0.09411954
144	0xbd8632f5	-0.06552688
145	0xbc90aaab	-0.017659506
146	0xbd2744ea	-0.040837206
147	0xbd371c2c	-0.0447046
148	0xbc8f4f73	-0.017493939
149	0x3cca868c	0.02472236
150	0x3c370cf8	0.011172526
151	0x3d23148b	0.039814513
152	0x3d3851fe	0.04500007
153	0xbde38503	-0.11109354
154	0x3ded70df	0.11593794
155	0xbdd47e22	-0.103756204
156	0x3bf91783	0.00760168
157	0xbb8e2cfe	-0.0043388596
158	0xbce6d039	-0.02817546
159	0xbd9cb97a	-0.07652564
160	0x3cae05ac	0.021242939
161	0x3dce02e1	0.10059143
162	0x3dd11a46	0.102100894
163	0x3e223992	0.15842274
164	0x3d806079	0.06268401
165	0x3daea07e	0.08526705
166	0x3cee633e	0.029100057
167	0xbe157c13	-0.14598112
168	0x3de4cc29	0.11171753
169	0x3d90db9c	0.07073137
170	0xbe0a91c9	-0.13532175
171	0xbdb4e2af	-0.08832299
172	0x3c49f3f0	0.012326226
173	0xbda8ce9e	-0.08242534
174	0xbe271fff	-0.163208
175	0xbd742dc8	-0.059613973
176	0xbd4a5502	-0.049397476
177	0x3c58ff8a	0.013244519
178	0x3d8e87d1	0.06959499
179	0xbd0527c6	-0.032508634
180	0x3d9d23dd	0.07672856
181	0x3c15ed98	0.009150885
182	0xbe023330	-0.12714839
183	0xbd9d5fda	-0.07684298
184	0xbe0a1510	-0.13484597
185	0xbdc0a37d	-0.09406183
186	0xbce7b4c4	-0.028284438
187	0xbd7110dc	-0.05885397
188	0xbb7ff0bc	-0.00390534
189	0xbdf524dc	-0.11969921
190	0x3c810f58	0.015754387
191	0xbe1940be	-0.14966103
192	0xbd298100	-0.04138279
193	0x3cd4e3bd	0.0259875
194	0xbd4dfcf5	-0.050290067
195	0xbe256e14	-0.16155273
196	0xbd07ba0e	-0.03313642
197	0xbd9e39f0	-0.077258945
198	0x3cd47f75	0.025939682
199	0xbd6d926e	-0.058000974
200	0x3d932f1b	0.07186719
201	0x3cecb53c	0.028895013
202	0xbc8a927f	-0.016915558
203	0xba972898	-0.0011532484
204	0x3e537111	0.206486
205	0xbd22f5bc	-0.03978513
206	0x3d19fa74	0.037592366
207	0xbdb7bd8c	-0.089717
208	0x3db37366	0.08762245
209	0xbd2723ad	-0.040805507
210	0x3ca13aea	0.019681413
211	0x3d10d971	0.03536362
212	0xbb85b9ad	-0.004080972
213	0x3cdc46bb	0.026889196
214	0x3db22388	0.08698183
215	0xbd343add	-0.04400145
216	0xbd8cf236	-0.068821356
217	0xbde7a1fc	-0.11310193
218	0xbd5be492	-0.05368478
219	0xbbf2eada	-0.0074132504
220	0xbd681a05	-0.05666544
221	0xbd5abfba	-0.0534055
222	0x3bbe44be	0.0058065346
223	0x3b06f8e7	0.0020595135
224	0x3d29e848	0.041481286
225	0xbd212313	-0.03934009
226	0x3c866a38	0.01640807
227	0x3dc4e41e	0.096138224
228	0xbd70d670	-0.058798254
229	0x3e013839	0.12619103
230	0xbd83a693	-0.06428256
231	0xbd764c72	-0.060131498
232	0xbd327040	-0.04356408
233	0xbd3327dd	-0.04373919
234	0xbd179f48	-0.037017137
235	0x3d430fdc	0.047622547
236	0xbc76b59a	-0.015057946
237	0x3d80dcd6	0.06292121
238	0xbc555d38	-0.013022713
239	0xbe256ff2	-0.16155985
240	0x3db20be9	0.08693678
241	0xbca7ed66	-0.020498943
242	0x3d34a5dc	0.04410349
243	0xbc3fba21	-0.011702091
244	0xbdb01736	-0.08598177
245	0xbdc90a43	-0.098164104
246	0xbd1c8918	-0.03821668
247	0xbdb4e40c	-0.08832559
248	0x3d4fdb68	0.05074635
249	0x3d727d58	0.05920157
250	0xbdcd3753	-0.10020318
251	0xba4d2588	-0.0007825722
252	0x3d892752	0.06696953
253	0x3d59a417	0.053135004
254	0xbe19adbb	-0.15007679
255	0xbda5592d	-0.080736496

mlp_1/MLP_0_1/hidden_1_1/BiasAdd/ReadVariableOp:0 f4 [256]
0	0xbe0f7673	-0.14010029
1	0xbe02783c	-0.12741178
2	0x3d5d29dd	0.053995002
3	0xbd82e2b7	-0.06390899
4	0xbde8e8fc	-0.11372563
5	0xbe6584cb	-0.22413938
6	0xbe6c9534	-0.23103791
7	0xbd485a19	-0.04891405
8	0xbe26244a	-0.1622478
9	0xbdc72fd6	-0.09725921
10	0xbe4adcb5	-0.19810756
11	0xbe6ad0ff	-0.22931288
12	0xbe0dc090	-0.13842988
13	0xbe055656	-0.13021216
14	0xbd20d63a	-0.039266802
15	0xbd8ece4f	-0.06972944
16	0xbeb201df	-0.34767053
17	0xbe12635d	-0.14295717
18	0xbe43ecfe	-0.19133374
19	0xbe63843b	-0.2221841
20	0xbd8019f7	-0.062549524
21	0xbd6a04fe	-0.057133667
22	0xbe132926	-0.14371166
23	0xbe4cc658	-0.19997537
24	0xbdbd1b95	-0.092337765
25	0xbe3bd038	-0.18341148
26	0xbe26ddf1	-0.16295601
27	0xbd135de5	-0.035978217
28	0xbe38bdd7	-0.18041168
29	0xbdbfed1f	-0.09371399
30	0xbe605838	-0.21908653
31	0xbdcbab7a	-0.09944816
32	0xbdbfa8aa	-0.09358342
33	0xbda6cded	-0.08144746
34	0xbda050d7	-0.07827919
35	0xbd25ff31	-0.040526573
36	0xbd53783a	-0.05162833
37	0xbf1bb1a1	-0.60817915
38	0xbe0acb7f	-0.1355419
39	0xbd0e0e06	-0.034681343
40	0xbdb65c5c	-0.08904335
41	0xbdb22180	-0.08697796
42	0xbd57b7c6	-0.052665494
43	0xbe442ae6	-0.1915699
44	0xbda29c81	-0.07940007
45	0xbe4f29d6	-0.20230803
46	0xbe38638d	-0.18006726
47	0xbd8e8843	-0.069595836
48	0xbe85ab12	-0.2610708
49	0xbe2a325f	-0.16620778
50	0xbd0a291b	-0.033730607
51	0xbd6b7b31	-0.05749053
52	0xbd516a99	-0.05112705
53	0x3d1936d2	0.037405796
54	0xbd890d41	-0.06691981
55	0xbe3710cf	-0.17877506
56	0xbe615094	-0.22003394
57	0xbdc69aa0	-0.09697461
58	0xbe705bc1	-0.23472501
59	0xbe3a78b2	-0.18210104
60	0xbe272b80	-0.16325188
61	0xbe30f9d0	-0.17282796
62	0xbdb5fc57	-0.08886021
63	0xbe1131b9	-0.14179124
64	0xbe84e47c	-0.2595557
65	0xbe8efc87	-0.27927038
66	0xbd9bde74	-0.07610789
67	0xbd9c7967	-0.07640343
68	0xbd8236bf	-0.06358098
69	0xbdc4749d	-0.09592555
70	0xbe1cafdc	-0.1530146
71	0xbdbeb2e4	-0.093114644
72	0xbd07ecc9	-0.0331848
73	0xbe143ce3	-0.14476351
74	0x3d4aa0f1	0.049469892
75	0xbe3f1c8b	-0.18663232
76	0xbe537bb3	-0.20652656
77	0xbe2fd1ef	-0.17169927
78	0xbdba4ad0	-0.090963006
79	0xbdabaa27	-0.08382063
80	0xbe77e826	-0.24209651
81	0xbe4fd995	-0.20297845
82	0xbd2222ac	-0.039583847
83	0xbdd403cb	-0.10352286
84	0xbd279ec9	-0.040922914
85	0x3d03a1e4	0.032136813
86	0x3d1162a6	0.03549447
87	0xbe2fd772	-0.1717203
88	0xbe4d0ebf	-0.20025156
89	0xbe96e869	-0.2947419
90	0xbe2f8800	-0.17141724
91	0xbce361ce	-0.027756598
92	0x3c332a7c	0.010935422
93	0xbdaf44a3	-0.08558013
94	0xbe4682d7	-0.19385849
95	0xbe45f0e7	-0.19330178
96	0xbe494b77	-0.19657694
97	0xbe71abc8	-0.23600686
98	0xbe35a563	-0.17738871
99	0xbe0cda59	-0.13755168
100	0xbde4f639	-0.11179776
101	0xbe22618e	-0.15857527
102	0xbe6567e8	-0.22402918
103	0xbd33c171	-0.043885652
104	0xbe8ae2dc	-0.27126205
105	0xbe0d8183	-0.13818936
106	0xbe3b93aa	-0.18318048
107	0xbd914e53	-0.07095017
108	0xbe3681c8	-0.17822945
109	0xbe3b9596	-0.18318781
110	0xbdf1f61e	-0.11814521
111	0xbe2270cf	-0.15863346
112	0xbe7390ae	-0.2378566
113	0xbd9a822d	-0.0754436
114	0xbe48f35c	-0.19624084
115	0xbe2fd255	-0.17170079
116	0xbda5c6dc	-0.0809457
117	0xbe006ca5	-0.12541445
118	0xbe249990	-0.16074204
119	0xbe2226c6	-0.15835103
120	0xbe3742bc	-0.17896551
121	0xbed1e800	-0.40997314
122	0xbdb37c37	-0.087639265
123	0x3dc7853c	0.09742209
124	0xbe032834	-0.12808305
125	0xbe7c2872	-0.24624804
126	0xbe511098	-0.20416486
127	0xbbd6eb65	-0.006558823
128	0xbe07666e	-0.13222668
129	0x3c86587d	0.016399616
130	0xbd782dec	-0.06059067
131	0xbc2c6d20	-0.010524064
132	0xbd88cf4b	-0.06680163
133	0xbc99763d	-0.018733138
134	0xbe0cfca2	-0.13768247
135	0xbdec79ef	-0.115466945
136	0xbe15a8c7	-0.14615165
137	0xbe145736	-0.14486393
138	0x3c6218eb	0.013799886
139	0xbe888f27	-0.26671717
140	0xbe5ae559	-0.21376552
141	0xbe35d03e	-0.1775522
142	0xbe64d08e	-0.22345182
143	0xbe57aabf	-0.21061228
144	0xbdf90529	-0.12159187
145	0xbd54a85f	-0.051918384
146	0xbdee05af	-0.11622178
147	0xbe4ac18f	-0.19800399
148	0x3cf6ccaa	0.030126888
149	0xbd68445e	-0.056705825
150	0xbdd99ca9	-0.10625584
151	0xbd819f64	-0.063292295
152	0xbe388fd5	-0.18023618
153	0xbe3a4d04	-0.18193442
154	0xbd7e8c55	-0.06214555
155	0xbe53f88f	-0.20700286
156	0xbe2bb2a9	-0.16767372
157	0xbe5d436e	-0.21607754
158	0xbdca5f04	-0.09881404
159	0xbe46f5cb	-0.194297
160	0xbe5ef880	-0.21774483
161	0xbe1a9e87	-0.15099536
162	0xbcbf949b	-0.02338629
163	0xbdfa9d78	-0.12237066
164	0xbc6e1729	-0.014531889
165	0x3d53a614	0.051672056
166	0xbcfe19f7	-0.03101824
167	0xbe038ce8	-0.1284672
168	0xbe26c1ee	-0.16284916
169	0xbe52426f	-0.20533155
170	0xbbd108bf	-0.0063792164
171	0xbe66d9d5	-0.22544034
172	0xbe5b93b6	-0.21443066
173	0xbd231d2e	-0.03982275
174	0xbe436a05	-0.19083412
175	0x3bce7dd5	0.0063016214
176	0xbe43e7b2	-0.19131353
177	0xbca3cff0	-0.019996613
178	0xbe45dd31	-0.19322659
179	0xbe32f94e	-0.17477915
180	0xbe294d5c	-0.16533417
181	0xbe830b4e	-0.25594562
182	0xbdae4e46	-0.08511023
183	0xbd5e0179	-0.054200623
184	0xbe84a2b1	-0.25905374
185	0x3c2ba94b	0.010477374
186	0xbc92eb52	-0.017934475
187	0xbe58a02c	-0.2115485
188	0xbdd8c7ed	-0.10585008
189	0xbe6d3cc3	-0.2316771
190	0xbe2a3814	-0.16622955
191	0xbdb43498	-0.08799094
192	0xbe485d56	-0.19566855
193	0xbcb8b2a0	-0.022546113
194	0xbbe6b6a7	-0.007040817
195	0xbe05e9b5	-0.13077433
196	0xbde0747a	-0.10959716
197	0xbd0df6a8	-0.034659058
198	0xbd009e97	-0.031401243
199	0xbe34d59b	-0.17659609
200	0xbdbca11a	-0.09210415
201	0xbd809ea9	-0.06280262
202	0xbe4cc298	-0.19996107
203	0xbe0682d4	-0.13135844
204	0xbefcdc2d	-0.4938673
205	0xbe5b3f1d	-0.21410795
206	0xbe7512db	-0.23932974
207	0xbe3e55dc	-0.1858744
208	0xbe625e41	-0.22106268
209	0xbe3b8474	-0.18312246
210	0xbe0f18d2	-0.13974312
211	0xbd51d404	-0.051227584
212	0x3d9d6bbe	0.07686566
213	0xbd164f24	-0.036696568
214	0xbd7e49d3	-0.062082123
215	0xb6bfa768	-5.7117322e-06
216	0xbdf13cb8	-0.11779159
217	0xbe24367e	-0.16036412
218	0xbe0512e8	-0.12995493
219	0xbe23163c	-0.1592645
220	0xbdfbdd3b	-0.12298056
221	0xbdc7eb56	-0.09761684
222	0xbe0730f9	-0.13202275
223	0xbdbb72f8	-0.09152788
224	0xbe6a2bcc	-0.2286827
225	0xbe508c16	-0.20365939
226	0xbdb1018e	-0.08642875
227	0xbd8446a6	-0.064587876
228	0xbd8f6428	-0.07001525
229	0xbe86f735	-0.2636048
230	0xbdc01e8b	-0.093808256
231	0x3c65e589	0.014031776
232	0xbe02e12c	-0.12781209
233	0xbe10fc11	-0.14158656
234	0xbcb1466a	-0.021640021
235	0xbd94953c	-0.07255027
236	0xbd8fed71	-0.0702771
237	0xbe78817c	-0.24268144
238	0xbd52c541	-0.051457647
239	0xbe032583	-0.12807278
240	0xbe52ea19	-0.20597114
241	0xbe4994ef	-0.1968572
242	0xbe2b92da	-0.16755238
243	0x3d343d1b	0.044003587
244	0xbde0a16b	-0.10968288
245	0xbe0f80d1	-0.14013983
246	0xbd9d77d1	-0.07688869
247	0xbe001e5d	-0.12511583
248	0xbe3c9311	-0.18415476
249	0xbe1af914	-0.15134078
250	0xbe579cc3	-0.21055894
251	0xbe7e286e	-0.2482011
252	0xbe277885	-0.16354568
253	0xbde294d2	-0.110635415
254	0xbe128d00	-0.143116
255	0x3d42dee5	0.04757585

mlp_1/MLP_0_1/hidden_0_1/Cast/ReadVariableOp:0 f4 [49, 512]
0	0xbe0e63ed	-0.13905306
1	0xbd76d544	-0.06026198
2	0xbbb1015a	-0.0054017724
3	0x3e05a282	0.13050273
4	0xb9d2bbcd	-0.00040194244
5	0x3de49793	0.11161723
6	0x3c3fe22c	0.011711638
7	0x3d7abb88	0.061214
8	0x3e1fa0bf	0.15588664
9	0x3daeca84	0.085347205
10	0xbe452cfc	-0.19255441
11	0xbe5b448b	-0.21412866
12	0xbdc4f805	-0.096176185
13	0xbdb638d5	-0.088975586
14	0xbd8dda9b	-0.06926461
15	0x3e1f5a9f	0.15561913
16	0xbce873d7	-0.02837555
17	0xbc834dbb	-0.016028276
18	0x3e307a09	0.17234053
19	0xbe77735e	-0.24165103
20	0xbe46939c	-0.19392246
21	0xbe1face0	-0.1559329
22	0x3cdc9059	0.0269243
23	0xbcbd41dc	-0.023102693
24	0xbe0e3d8a	-0.13890663
25	0x3ea0f7ce	0.3143906
26	0xbea3769d	-0.31926432
27	0xbe6c3e16	-0.23070559
28	0x3e873f82	0.2641564
29	0xbe522431	-0.20521618
30	0xbbbb3a59	-0.0057137427
31	0xbd3dee66	-0.046369933
32	0x3d8b049b	0.06787988
33	0xbdb14a0a	-0.086567
34	0x3e7c3e4b	0.24633138
35	0xbe616562	-0.2201133
36	0x3e494a38	0.19657218
37	0x3e02d6f2	0.12777308
38	0x3e56d068	0.20977938
39	0x3d78a5a9	0.06070486
40	0x3e46ef63	0.19427256
41	0x3e15aee6	0.146175
42	0xbe84f62b	-0.2596906
43	0xbe77cd3a	-0.24199381
44	0x3e84961b	0.2589577
45	0x3da6fabb	0.08153292
46	0xbddcd6f3	-0.10783186
47	0x3dbbd4ee	0.091714725
48	0xbdb09189	-0.08621509
49	0x3e8cc43e	0.2749347
50	0x3ce8f0a3	0.028435057
51	0xbe4b705c	-0.1986708
52	0x3b6518ea	0.0034957477
53	0xbe2acb9a	-0.1667923
54	0x3c35f3b4	0.011105467
55	0x3dba979b	0.09110948
56	0x3d9a05ac	0.07520613
57	0xbe679ea3	-0.22619109
58	0x3d7ee4a2	0.06222976
59	0xbd99b7b6	-0.07505743
60	0x3e9a2f78	0.3011434
61	0x3df235d3	0.118266724
62	0x3e22f5ce	0.1591408
63	0x3dfa00cf	0.122071855
64	0x3e1cc374	0.15308934
65	0x3c6ba812	0.014383333
66	0x3c0794e7	0.008275247
67	0x3dcfa746	0.10139327
68	0xbe2b4caf	-0.16728471
69	0x3d49c454	0.0492595
70	0xbd8cb307	-0.06870084
71	0x3e8484a2	0.2588244
72	0xbe05d0a2	-0.13067868
73	0xbe888f9f	-0.26672074
74	0xbdc3753e	-0.095438465
75	0xbe9adafd	-0.302452
76	0xb9986214	-0.00029064773
77	0xbd6f771c	-0.0584632
78	0x3e8bb083	0.27283105
79	0xbd0c09cc	-0.03418903
80	0xbdab2fe2	-0.08358742
81	0x3e05611a	0.13025323
82	0xbdb97912	-0.090562955
83	0x3e57d6c9	0.21078028
84	0xbdfb2bc9	-0.12264211
85	0xbd1ecda2	-0.038770325
86	0xbdffb30f	-0.124853246
87	0x3e304a35	0.17215808
88	0xbe4ac212	-0.19800594
89	0xbe904ec0	-0.2818508
90	0x3e3acde9	0.18242611
91	0x3ea42b24	0.32064164
92	0xbe083100	-0.13299942
93	0xbd95154a	-0.07279451
94	0xbd30321d	-0.04301654
95	0x3e2fe9f8	0.17179096
96	0x3dce4348	0.10071427
97	0xbe5bae0b	-0.21453111
98	0xbd58662d	-0.052831817
99	0x3e0f2f19	0.1398281
100	0xbe7f8d96	-0.24956354
101	0x3df59dae	0.11992966
102	0xbe3b1170	-0.1826837
103	0xbce57d6b	-0.028013906
104	0xbe29088f	-0.16507171
105	0x3d879bb2	0.066214934
106	0x3e842a3a	0.25813466
107	0xbe88de6d	-0.26732197
108	0x3c4b862a	0.012422124
109	0x3e079a17	0.13242374
110	0xbcbe6c0c	-0.02324488
111	0x3ddda74e	0.108229265
112	0xbe30670d	-0.17226811
113	0x3e4d255d	0.20033784
114	0x3bbb324e	0.005712784
115	0xbd223921	-0.039605264
116	0xbdd7c1cb	-0.1053501
117	0xbe5ab963	-0.21359782
118	0x3d91e06f	0.071228854
119	0xbcb0c40c	-0.021577857
120	0xbe5fdceb	-0.21861617
121	0xbe0223f3	-0.12709026
122	0x3e177b4c	0.14793128
123	0x3eb16eb5	0.34654775
124	0x3b84b687	0.0040500793
125	0xbdbcd6c3	-0.0922065
126	0x3d61c562	0.05511988
127	0xbe36b0da	-0.17840901
128	0xbe8a272d	-0.26983014
129	0x3d822aa0	0.06355786
130	0xbdcadecc	-0.099057764
131	0xbe12c775	-0.143339
132	0xbe0f3b51	-0.13987471
133	0xbe231bc8	-0.15928566
134	0x3d812115	0.06305138
135	0x3c81e564	0.015856452
136	0xbd39aa0a	-0.045328178
137	0xbd2531e9	-0.0403308
138	0x3e190fe8	0.14947474
139	0xbe2ea7a6	-0.1705614
140	0x3d6e5b67	0.058192637
141	0x3dd3386e	0.103134975
142	0x3e2cbee9	0.16869701
143	0xbca2cb54	-0.019872345
144	0xbb0a94a0	-0.0021145716
145	0x3d6ac88f	0.057320174
146	0xbe11c37f	-0.14234732
147	0x3e4217b2	0.18954352
148	0x3cb765d1	0.022387417
149	0xbde690af	-0.11258065
150	0x3d197b06	0.03747084
151	0xbd5bdf6e	-0.053679876
152	0xbd78e190	-0.06076199
153	0xbcc25db2	-0.023726318
154	0xbcc06b3b	-0.023488631
155	0x3df6f28e	0.120579824
156	0x3e01a87f	0.12661932
157	0xbdc34da4	-0.09536293
158	0xbe855b21	-0.26046088
159	0x3e777c2f	0.24168466
160	0xbd40a521	-0.04703248
161	0xbe148f7d	-0.14507861
162	0x3e94fd42	0.2909947
163	0x3e985077	0.2974889
164	0xbe297726	-0.16549358
165	0x3c964695	0.018344203
166	0x3e807c7a	0.25094968
167	0x3eb50e33	0.35362396
168	0x3ebcd626	0.36882132
169	0xbcdd9041	-0.027046325
170	0xbda73e69	-0.08166201
171	0xbdbf705b	-0.09347602
172	0x3d818fd9	0.06326265
173	0xbe8f8b68	-0.28036046
174	0xbbf015c9	-0.0073268157
175	0x3d7abe00	0.061216354
176	0x3e28d1cf	0.16486286
177	0xbd61db6b	-0.055140894
178	0xbdb297a8	-0.087203324
179	0xbe599cb8	-0.2125119
180	0xbd0ba4dd	-0.034092773
181	0x3e04de39	0.12975396
182	0x3c867961	0.0164153
183	0xbe492e6c	-0.19646615
184	0xbde7cd08	-0.113184035
185	0x3e64ac94	0.22331458
186	0x3e303d5e	0.1721091
187	0xbe66b99d	-0.22531743
188	0x3d29dddf	0.04147136
189	0x3e57ab8a	0.2106153
190	0x3e9f6a2c	0.3113569
191	0xbe342996	-0.17593989
192	0x3c76b96e	0.015058858
193	0xbddc58c0	-0.10759115
194	0xbe953711	-0.29143575
195	0x3d8699c3	0.065722965
196	0xbdc2beed	-0.095090725
197	0x3e60df43	0.21960168
198	0x3de1eec2	0.110318676
199	0xbe41b394	-0.1891616
200	0x3ea51ccc	0.32248533
201	0x3cdd940c	0.027048133
202	0xbd0313ea	-0.032001413
203	0x3e16083c	0.14651579
204	0xbdf3ea35	-0.11909906
205	0xbe3fe34a	-0.18739048
206	0x3df1069e	0.1176884
207	0x3d92da07	0.07170492
208	0x3caa54d5	0.020792404
209	0xbd442a6b	-0.047892015
210	0x3e6c30f9	0.23065557
211	0xbd692b62	-0.05692614
212	0x3e26d998	0.16293943
213	0x3de1a072	0.11016931
214	0xbe27f726	-0.16402873
215	0xbda51bba	-0.08061929
216	0xbba11aa8	-0.0049165078
217	0xbcf9e43f	-0.030504344
218	0x3e199818	0.14999425
219	0xbd7b3635	-0.061330993
220	0x3e6be649	0.23037066
221	0x3e522b07	0.20524226
222	0x3d464e03	0.04841424
223	0x3e429a63	0.19004206
224	0xbc4437d7	-0.011976204
225	0x3e047142	0.1293383
226	0xbda93125	-0.08261327
227	0xbe4b4d79	-0.19853772
228	0x3dd7d6f1	0.10539044
229	0xbe7bf71d	-0.24605985
230	0x3e1fcb83	0.15604977
231	0xbe95cb0c	-0.29256475
232	0x3d881caf	0.06646096
233	0x3d3b59b6	0.045739852
234	0x3e6e654e	0.23280832
235	0x3e069772	0.1314371
236	0xbe1ce7c5	-0.15322788
237	0xbc4c2a72	-0.012461292
238	0xbe659103	-0.22418599
239	0x3cc950aa	0.024574596
240	0x3e46c7d1	0.19412161
241	0x3c3fab6c	0.011698585
242	0x3e319b51	0.17344405
243	0x3df2974b	0.11845263
244	0xbe6553ba	-0.2239522
245	0x3e86cd1b	0.26328358
246	0xbe6db0e2	-0.23212007
247	0x3dbc6896	0.09199636
248	0xbe1c475d	-0.15261598
249	0x3df38fa9	0.118926354
250	0xbebe625b	-0.37184414
251	0xbead8078	-0.33887076
252	0x3e15790e	0.1459696
253	0xbe839cd9	-0.25705603
254	0xbec289c2	-0.37995726
255	0xbdc67548	-0.096903384

mlp_1/MLP_0_1/hidden_0_1/BiasAdd/ReadVariableOp:0 f4 [512]
0	0xbde325e9	-0.11091215
1	0xbd9989a6	-0.074969575
2	0xbeb2d631	-0.3492904
3	0xbe80f960	-0.25190258
4	0xbd9e1fe6	-0.07720928
5	0xbde2993b	-0.11064383
6	0xbed15925	-0.40888324
7	0xbcff0ad5	-0.031133095
8	0xbe3f4d74	-0.1868189
9	0xbe9ea8f8	-0.30988288
10	0xbe2df6cd	-0.16988678
11	0xbea0a2c1	-0.3137417
12	0xbd506356	-0.050875984
13	0xbe72cd2e	-0.23711082
14	0xbdf5a318	-0.11993998
15	0xbe9ea1af	-0.3098273
16	0xbead96d1	-0.33904126
17	0xbd97af2f	-0.074064605
18	0xbde10e8b	-0.10989102
19	0xbe30fcca	-0.17283931
20	0xbe4af06f	-0.1981828
21	0xbe4deef8	-0.2011069
22	0xbe486e15	-0.19573243
23	0xbe9e3546	-0.3090002
24	0xbe19e3ca	-0.15028301
25	0x3d0e3196	0.034715258
26	0xbbf63b7b	-0.007514415
27	0xbe758762	-0.23977426
28	0xbe2494ca	-0.16072384
29	0xbea9b933	-0.33149108
30	0xbe372dad	-0.17888518
31	0xbe3fba59	-0.1872343
32	0xbe85c9ee	-0.26130623
33	0xbea38bc4	-0.3194257
34	0xbecdc9b8	-0.40192962
35	0xbdc807ca	-0.09767111
36	0xbe7798f7	-0.24179445
37	0xbeb0d52c	-0.34537637
38	0xbc255b30	-0.010092542
39	0xbc3bcf9a	-0.01146307
40	0xbe183f38	-0.14867866
41	0xbe843c70	-0.2582736
42	0xbe11877f	-0.14211844
43	0x3d7cc3ff	0.061710354
44	0xbe93aaf5	-0.28841367
45	0xbd93d46e	-0.07218252
46	0xbead8859	-0.33893088
47	0xbbef8d63	-0.007310556
48	0xbed63362	-0.41836077
49	0xbea0d5f9	-0.31413248
50	0xbe6a97cb	-0.22909467
51	0xbea505f1	-0.32231095
52	0xbebee457	-0.37283584
53	0xbbafc0c1	-0.005363554
54	0xbe598f59	-0.21246089
55	0xbe9d4190	-0.30714083
56	0x3be85644	0.007090362
57	0xbe57d811	-0.21078517
58	0xbdf1a059	-0.11798162
59	0xbe18f1b3	-0.14935951
60	0xbe04206d	-0.12902994
61	0xbe110d01	-0.14165117
62	0xbde982c7	-0.11401897
63	0xbe18a3f4	-0.14906293
64	0xbe87a14f	-0.26490256
65	0xbe37d760	-0.17953253
66	0xbe068bff	-0.13139342
67	0xbd65fba8	-0.0561482
68	0xbe367d2c	-0.17821187
69	0xbe02b38a	-0.12763801
70	0xbddb9f15	-0.10723702
71	0xbe2d17ff	-0.16903685
72	0xbe41ce2e	-0.18926308
73	0xbe06faeb	-0.13181655
74	0xbf02e437	-0.5112948
75	0xbe8b0915	-0.27155367
76	0xbdaecceb	-0.08535179
77	0xbe6aa7a4	-0.22915512
78	0xbe0a45ef	-0.1350324
79	0xbe84481c	-0.25836265
80	0xbe820197	-0.25391838
81	0xbd358ee4	-0.044325724
82	0xbe65253e	-0.22377488
83	0x3d6a114d	0.057145406
84	0xbebe4716	-0.3716361
85	0xbed0e375	-0.40798536
86	0xbe9f6663	-0.31132802
87	0xbdddae29	-0.10824234
88	0xbd4c94fc	-0.04994677
89	0xbdaaacbb	-0.08333727
90	0xbe1db2aa	-0.15400186
91	0xbe21f1ec	-0.15814942
92	0xbe2516f7	-0.16122042
93	0xbe9dd4b0	-0.3082633
94	0xbd935bbb	-0.071952306
95	0xbdf9bd4e	-0.1219431
96	0xbeb59090	-0.35461855
97	0x3cf1e2f1	0.02952716
98	0xbdfaa5ed	-0.12238679
99	0xbe58ca57	-0.21170937
100	0xbe21a712	-0.15786389
101	0xbe70ad09	-0.23503508
102	0xbe044bf0	-0.12919593
103	0xbd129d89	-0.03579477
104	0xbecd6d9d	-0.4012269
105	0xbe893c18	-0.2680366
106	0xbcd073b9	-0.025445806
107	0xbdfce38e	-0.1234809
108	0xbe582e3e	-0.2111139
109	0x3e315614	0.17317992
110	0xbe6caea1	-0.2311349
111	0xbddfb2c2	-0.10922767
112	0xbce074d3	-0.027399456
113	0x3c624a93	0.013811725
114	0xbe34a778	-0.1764201
115	0xbdf25ab7	-0.11833709
116	0xbe686ec2	-0.22698501
117	0x3d9e2fa0	0.077239275
118	0xbc95529c	-0.018227868
119	0xbecd5d9a	-0.40110475
120	0xbe5e7bbd	-0.2172689
121	0xbdcf1f70	-0.10113418
122	0x3d8b999d	0.06816409
123	0xbecdd297	-0.4019973
124	0xbe4d33df	-0.20039319
125	0xbea8094e	-0.328196
126	0xbcc53903	-0.024075037
127	0xbe29bd3c	-0.16576093
128	0xbe84b4ef	-0.2591929
129	0xbd8648f9	-0.06556887
130	0xbeb98067	-0.36230776
131	0xbe1c49f0	-0.1526258
132	0xbd45ab4b	-0.04825906
133	0xbe480e75	-0.19536765
134	0xbea22534	-0.3166901
135	0xbeeb11d4	-0.4591204
136	0xbe172389	-0.1475965
137	0xbdb594a1	-0.08866239
138	0xbb07b97c	-0.0020709923
139	0xbda2c8cf	-0.079484574
140	0xbe889c5a	-0.26681787
141	0x3ca246f8	0.019809231
142	0xbe3156b1	-0.17318226
143	0xbd05e6f6	-0.032690965
144	0xbe5fb644	-0.21846873
145	0xb84359ed	-4.6575373e-05
146	0xbde271c9	-0.11056859
147	0xbe603390	-0.2189467
148	0xbe47e78f	-0.19521926
149	0xbea36b24	-0.3191768
150	0xbdfdb880	-0.12388706
151	0xbea2a7a6	-0.3176853
152	0xbd5ce6bf	-0.053930994
153	0xbe562ee4	-0.20916325
154	0x3dac8211	0.08423246
155	0xbd09e447	-0.033664968
156	0xbe859b70	-0.26095152
157	0xbe907603	-0.28215036
158	0xbdebf4a3	-0.1152127
159	0xbe30922a	-0.17243257
160	0xbc8d969a	-0.017283726
161	0xbe41cbb1	-0.18925358
162	0xbe15520d	-0.14582081
163	0xbe5f1bf8	-0.21788013
164	0xbe5baeb0	-0.21453357
165	0xbb824f51	-0.0039767404
166	0xbea6b9c6	-0.3256361
167	0xbe182d48	-0.14861023
168	0x3c7620b9	0.01502245
169	0xbe6321cb	-0.2218086
170	0xbe8a8c98	-0.2706039
171	0xbe52cbf8	-0.2058562
172	0xbe92aee3	-0.28649053
173	0xbe898774	-0.26861155
174	0xbe8a8e11	-0.27061513
175	0xbc2a65b1	-0.010400222
176	0xbeaf3d3e	-0.34226412
177	0x3e8107da	0.25201303
178	0x3d29addb	0.041425567
179	0xbdfd4500	-0.12366676
180	0xbe4aca5f	-0.19803761
181	0x3db79972	0.08964814
182	0xbc38bbc1	-0.011275233
183	0xbe9f4198	-0.31104732
184	0xbe8c9880	-0.27460098
185	0xbdb7c559	-0.08973188
186	0xbe2c362d	-0.16817541
187	0xbca6ad64	-0.020346351
188	0xbe7c8a44	-0.24662119
189	0xbe0f5485	-0.13997085
190	0xbe23e68f	-0.1600592
191	0xbe299dce	-0.16564104
192	0xbe397ca6	-0.18113956
193	0xbd5b6aee	-0.053568773
194	0x3d31f802	0.04344941
195	0xbd883e23	-0.06652477
196	0xbe0d5ab9	-0.13804139
197	0xbe23ecf7	-0.16008364
198	0xbe0749c0	-0.13211727
199	0xbd1d206c	-0.038360998
200	0x3e2997e3	0.16561846
201	0xbca521b1	-0.020157667
202	0x3d018a83	0.031626236
203	0xbdf1e6a8	-0.11811572
204	0xbe538730	-0.20657039
205	0xbe57a861	-0.21060325
206	0x3d77b8e1	0.06047905
207	0xbe3e4dd4	-0.18584377
208	0xbe9de2bf	-0.30837056
209	0xbe60cbb2	-0.21952704
210	0xbdb39ff7	-0.08770745
211	0xbd8029f5	-0.06258003
212	0x3cf34906	0.029697906
213	0xbe9783c8	-0.2959273
214	0xbd80e38a	-0.062934
215	0xbc85cea0	-0.016333878
216	0x3d354d36	0.044263087
217	0xbf06e0fa	-0.52687037
218	0x3cc1d818	0.023662612
219	0xbe451b1c	-0.19248623
220	0xbe174d87	-0.14775668
221	0xbb614264	-0.0034371847
222	0xbdf5acf8	-0.11995882
223	0xbea99df5	-0.33128324
224	0xbe2a547a	-0.16633788
225	0xbe9b24d4	-0.30301535
226	0x3b88e388	0.0041775145
227	0xbd296afe	-0.0413618
228	0xbdd29d5c	-0.1028392
229	0xbe70f182	-0.23529628
230	0xbd91fd70	-0.071284175
231	0xbe15f817	-0.1464542
232	0xbe2b6779	-0.1673869
233	0x3dddcd10	0.10830128
234	0xbe5c8976	-0.21536812
235	0xbe6323af	-0.22181581
236	0xbe2d930e	-0.16950628
237	0xbd404c7e	-0.04694795
238	0xbea35098	-0.31897426
239	0xbdede909	-0.116167136
240	0xbe5a6a7f	-0.21329688
241	0xbdfc80ea	-0.12329276
242	0x3d909f45	0.07061628
243	0xbdc24fa4	-0.094878465
244	0xbde1838f	-0.11011421
245	0xbe199234	-0.14997178
246	0xbcf41f91	-0.029800208
247	0xbe5eac4a	-0.2174541
248	0xbe86c26f	-0.26320216
249	0xbdee6e4e	-0.11642133
250	0xbdb95daf	-0.09051072
251	0xbe906e3c	-0.28209102
252	0xbe86bdb3	-0.26316604
253	0xbe8ad4f7	-0.27115604
254	0xbe0c54be	-0.13704202
255	0xbe01bb58	-0.12669122

ConstantFolding/mlp_1/truediv_recip:0 f4 [49]
0	0x400c2b68	2.1901493
1	0x3fe11ddf	1.7587241
2	0x3f98cbc6	1.1937187
3	0x41026e5b	8.151942
4	0x413b2b68	11.698097
5	0x41438977	12.221061
6	0x40679c29	3.6189063
7	0x4067d09b	3.6221073
8	0x3f9b2074	1.2119279
9	0x418bfd29	17.498613
10	0x41910528	18.127518
11	0x410ec107	8.922126
12	0x40f24dd4	7.5720005
13	0x41410428	12.063515
14	0x417ef9d7	15.935996
15	0x4195bf82	18.71851
16	0x418b6bdd	17.427668
17	0x41120339	9.125787
18	0x40f3e74c	7.6219845
19	0x4139fc2d	11.624066
20	0x418a3ed3	17.280676
21	0x3f664bbf	0.8995933
22	0x3f9e61b1	1.2373563
23	0x3f729196	0.94753397
24	0x3f26ee5a	0.65207446
25	0x3f56b4dc	0.8386972
26	0x3f5c3f30	0.86033916
27	0x3f6d504a	0.92700636
28	0x3fa04528	1.2521105
29	0x3f6e99a8	0.9320321
30	0x3f285095	0.6574796
31	0x3f6027fc	0.8756101
32	0x3f5e021b	0.8672196
33	0x40772e49	3.8622
34	0x4057256d	3.3616593
35	0x4036d082	2.8564763
36	0x3feac2f2	1.8340743
37	0x40383af4	2.8785982
38	0x40451e82	3.079987
39	0x4079eecb	3.9051998
40	0x4050820d	3.2579377
41	0x4038c31b	2.8869083
42	0x3fe3ad1c	1.7787204
43	0x402e48a8	2.7231846
44	0x403f7c8e	2.9919772
45	0x3fb4c603	1.4122928
46	0x3fb4c603	1.4122928
47	0x3fb54574	1.416182
48	0x3fb54573	1.4161819
